…
yers += [DeconvBlock(n_in=in_feats, n_out=out_feats)] self.gen = nn.Sequential(*layers) def forward(self, input): return self.gen(input) . Let&#39;s use a single item batch and iterate through the children of the model, and have a look at the size of each output. Click the show button if you want to see the output. . generator = Generator(n_in=100) with torch.no_grad(): out = torch.randn(1, 100, 1, 1) for children in generator.children(): for c in children.children(): print(&#39;Step: &#39;, c) out = c(out) print(&#39;Output shape: &#39;, out.shape) . Step: DeconvBlock( (block): Sequential( (0): ConvTranspose2d(100, 1024, kernel_size=(4, 4), stride=(1, 1), bias=False) (1): Sequential( (0): BatchNorm2d(1024, eps=1e-05, momentum=0.1, affine=True, track_running_stats=True) (1): ReLU(inplace=True) ) ) ) Output shape: torch.Size([1, 1024, 4, 4]) Step: DeconvBlock( (block): Sequential( (0): ConvTranspose2d(1024, 512, kernel_size=(4, 4), stride=(2, 2), padding=(1, 1), bias=False) (1): Sequential( (0): BatchNorm2d(512, eps=1e-05, momentum=0.1, affine=True, track_running_stats=True) (1): ReLU(inplace=True) ) ) ) Output shape: torch.Size([1, 512, 8, 8]) Step: DeconvBlock( (block): Sequential( (0): ConvTranspose2d(512, 256, kernel_size=(4, 4), stride=(2, 2), padding=(1, 1), bias=False) (1): Sequential( (0): BatchNorm2d(256, eps=1e-05, momentum=0.1, affine=True, track_running_stats=True) (1): ReLU(inplace=True) ) ) ) Output shape: torch.Size([1, 256, 16, 16]) Step: DeconvBlock( (block): Sequential( (0): ConvTranspose2d(256, 128, kernel_size=(4, 4), stride=(2, 2), padding=(1, 1), bias=False) (1): Sequential( (0): BatchNorm2d(128, eps=1e-05, momentum=0.1, affine=True, track_running_stats=True) (1): ReLU(inplace=True) ) ) ) Output shape: torch.Size([1, 128, 32, 32]) Step: DeconvBlock( (block): Sequential( (0): ConvTranspose2d(128, 64, kernel_size=(4, 4), stride=(2, 2), padding=(1, 1), bias=False) (1): Sequential( (0): BatchNorm2d(64, eps=1e-05, momentum=0.1, affine=True, track_running_stats=True) (1): ReLU(inplace=True) ) ) ) Output shape: torch.Size([1, 64, 64, 64]) Step: DeconvBlock( (block): Sequential( (0): ConvTranspose2d(64, 3, kernel_size=(4, 4), stride=(2, 2), padding=(1, 1), bias=False) (1): Tanh() ) ) Output shape: torch.Size([1, 3, 128, 128]) . . Additionally, we want to use the weight initialization as suggested in the DCGAN paper. Here we want to avoid applying the weight normalization to ConvBlock which is defined below as it is actually built on an nn.Sequential object and doesn&#39;t have a single m.weig
…
) def forward(self, input): return self.disc(input) . Using the old output tensor from running through the Generator let&#39;s run this through the discriminator and see the structure of the network and the size of the tensor after each step. Click on the show button if you want to see the output. . discriminator = Discriminator(32, img_size=128) discriminator = discriminator.apply(weights_init) d_out = out.detach() with torch.no_grad(): for children in discriminator.children(): for c in children.children(): print(c) d_out = c(d_out) print(d_out.shape) . ConvBlock( (conv_block): Sequential( (0): Conv2d(3, 32, kernel_size=(4, 4), stride=(2, 2), padding=(1, 1), bias=False) (1): LeakyReLU(negative_slope=0.2, inplace=True) ) ) torch.Size([1, 32, 64, 64]) ConvBlock( (conv_block): Sequential( (0): Conv2d(32, 64, kernel_size=(4, 4), stride=(2, 2), padding=(1, 1), bias=False) (1): BatchNorm2d(64, eps=1e-05, momentum=0.1, affine=True, track_running_stats=True) (2): LeakyReLU(negative_slope=0.2, inplace=True) ) ) torch.Size([1, 64, 32, 32]) ConvBlock( (conv_block): Sequential( (0): Conv2d(64, 128, kernel_size=(4, 4), stride=(2, 2), padding=(1, 1), bias=False) (1): BatchNorm2d(128, eps=1e-05, momentum=0.1, affine=True, track_running_stats=True) (2): LeakyReLU(negative_slope=0.2, inplace=True) ) ) torch.Size([1, 128, 16, 16]) ConvBlock( (conv_block): Sequential( (0): Conv2d(128, 256, kernel_size=(4, 4), stride=(2, 2), padding=(1, 1), bias=False) (1): BatchNorm2d(256, eps=1e-05, momentum=0.1, affine=True, track_running_stats=True) (2): LeakyReLU(negative_slope=0.2, inplace=True) ) ) torch.Size([1, 256, 8, 8]) ConvBlock( (conv_block): Sequential( (0): Conv2d(256, 512, kernel_size=(4, 4), stride=(2, 2), padding=(1, 1), bias=False) (1): BatchNorm2d(512, eps=1e-05, momentum=0.1, affine=True, track_running_stats=True) (2): LeakyReLU(negative_slope=0.2, inplace=True) ) ) torch.Size([1, 512, 4, 4]) Conv2d(512, 1, kernel_size=(4, 4), stride=(1, 1), bias=False) torch.Size([1, 1, 1, 1]) Sigmoid() torch.Size([1, 1, 1, 1]) . . Training . We have everything we need so now it is time to get training. . First, let&#39;s create a transform to unnormalize
…
y want output for 10 classes. Let&#39;s use this network and modify the output. . from torchvision.models import resnet18 class ModifiedResNet(nn.Module): def __init__(self, n_out): super().__init__() self.n_out = n_out self.body = nn.Sequential(*list(resnet18(pretrained=False).children())[:-1]) self.flatten = nn.Flatten(start_dim=1) self.fc = nn.Linear(512, n_out) def forward(self, xb): xb = self.body(xb) # need to flatten to get rid of 1x1 from the shape (bs x 512 x 1 x 1) xb = self.flatten(xb) return self.fc(xb) model = ModifiedResNet(n_out=10) model . ModifiedResNet( (body): Sequential( (0): Conv2d(3, 64, kernel_size=(7, 7), stride=(2, 2), padding=(3, 3), bias=False) (1): BatchNorm2d(64, eps=1e-05, momentum=0.1, affine=True, track_running_stats=True) (2): ReLU(inplace=True) (3): MaxPool2d(kernel_size=3, stride=2, padding=1, dilation=1, ceil_mode=False) (4): Sequential( (0): BasicBlock( (conv1): Conv2d(64, 64, kernel_size=(3, 3), stride=(1, 1), padding=(1, 1), bias=False) (bn1): BatchNorm2d(64, eps=1e-05, momentum=0.1, affine=True, track_running_stats=True) (relu): ReLU(inplace=True) (conv2): Conv2d(64, 64, kernel_size=(3, 3), stride=(1, 1), padding=(1, 1), bias=False) (bn2): BatchNorm2d(64, eps=1e-05, momentum=0.1, affine=True, track_running_stats=True) ) (1): BasicBlock( (conv1): Conv2d(64, 64, kernel_size=(3, 3), stride=(1, 1), padding=(1, 1), bias=False) (bn1): BatchNorm2d(64, eps=1e-05, momentum=0.1, affine=True, track_running_stats=True) (relu): ReLU(inplace=True) (conv2): Conv2d(64, 64, kernel_size=(3, 3), stride=(1, 1), padding=(1, 1), bias=False) (bn2): BatchNorm2d(64, eps=1e-05, momentum=0.1, affine=True, track_running_stats=True) ) ) (5): Sequential( (0): BasicBlock( (conv1): Conv2d(64, 128, kernel_size=(3, 3), stride=(2, 2), padding=(1, 1), bias=False) (bn1): BatchNorm2d(128, eps=1e-05, momentum=0.1, affine=True, track_running_stats=True) (relu): ReLU(inplace=True) (conv2): Conv2d(128, 128, kernel_size=(3, 3), stride=(1, 1), padding=(1, 1), bias=False) (bn2): BatchNorm2d(128, eps=1e-05, momentum=0.1, affine=True, track_running_stats=True) (downsample): Sequential( (0): Conv2d(64, 128, kernel_size=(1, 1), stride=(2, 2), bias=False) (1): BatchNorm2d(128, eps=1e-05, momentum=0.1, affine=True, track_running_stats=True) ) ) (1): BasicBlock( (conv1): Conv2d(128, 128, kernel_size=(3, 3), stride=(1, 1), padding=(1, 1), bias=False) (bn1): BatchNorm2d(128, eps=1e-05, momentum=0.1, affine=True, track_running_stats=True) (relu): ReLU(inplace=True) (conv2): Conv2d(128, 128, kernel_size=(3, 3), stride=(1, 1), padding=(1, 1), bias=False) (bn2): BatchNorm2d(128, eps=1e-05, momentum=0.1, affine=True, track_running_stats=True) ) ) (6): Sequential( (0): BasicBlock( (conv1): Conv2d(128, 256, kernel_size=(3, 3), stride=(2, 2), padding=(1, 1), bias=False) (bn1): BatchNorm2d(256, eps=1e-05, momentum=0.1, affine=True, track_running_stats=True) (relu): ReLU(inplace=True) (conv2): Conv2d(256, 256, kernel_size=(3, 3), stride=(1, 1), padding=(1, 1), bias=False) (bn2): BatchNorm2d(256, eps=1e-05, momentum=0.1, affine=True, track_running_stats=True) (downsample): Sequential( (0): Conv2d(128, 256, kernel_size=(1, 1), stride=(2, 2), bias=False) (1): BatchNorm2d(256, eps=1e-05, momentum=0.1, affine=True, track_running_stats=True) ) ) (1): BasicBlock( (conv1): Conv2d(256, 256, kernel_size=(3, 3), stride=(1, 1), padding=(1, 1), bias=False) (bn1): BatchNorm2d(256, eps=1e-05, momentum=0.1, affine=True, track_running_stats=True) (relu): ReLU(inplace=True) (conv2): Conv2d(256, 256, kernel_size=(3, 3), stride=(1, 1), padding=(1, 1), bias=False) (bn2): BatchNorm2d(256, eps=1e-05, momentum=0.1, affine=True, track_running_stats=True) ) ) (7): Sequential( (0): BasicBlock( (conv1): Conv2d(256, 512, kernel_size=(3, 3), stride=(2, 2), padding=(1, 1), bias=False) (bn1): BatchNorm2d(512, eps=1e-05, momentum=0.1, affine=True, track_running_stats=True) (relu): ReLU(inplace=True) (conv2): Conv2d(512, 512, kernel_size=(3, 3), stride=(1, 1), padding=(1, 1), bias=False) (bn2): BatchNorm2d(512, eps=1e-05, momentum=0.1, affine=True, track_running_stats=True) (downsample): Sequential( (0): Conv2d(256, 512, kernel_size=(1, 1), stride=(2, 2), bias=False) (1): BatchNorm2d(512, eps=1e-05, momentum=0.1, affine=True, track_running_stats=True) ) ) (1): BasicBlock( (conv1): Conv2d(512, 512, kernel_size=(3, 3), stride=(1, 1), padding=(1, 1), bias=False) (bn1): BatchNorm2d(512, eps=1e-05, momentum=0.1, affine=True, track_running_stats=True) (relu): ReLU(inplace=True) (conv2): Conv2d(512, 512, kernel_size=(3, 3), stride=(1, 1), padding=(1, 1), bias=False) (bn2): BatchNorm2d(512, eps=1e-05, momentum=0.1, affine=True, track_running_stats=True) ) ) (8): AdaptiveAvgPool2d(output_size=(1, 1)) ) (flatten): Flatten(start_dim=1, end_dim=-1) (fc): Linear(in_features=512, out_features=10, bias=True) ) . . Loss . So to reiterate we have a way of batching our data and a model to go from input -&gt; prediction but now we need a way to check these predictions, and using this function to optimise the weights of the models. . Again torch.nn has these loss functions that we need. Here we are classifying with 10 possible labels, so we want a loss function 
…
